Problem_Set_5/checkpoint_epoch_50_linear.pth (torch, 373079 bytes, 6 tensors)

linear.weight f4 [10, 3072]
0	0xbd21ca9f	-0.039499875
1	0xbce9a27b	-0.02851986
2	0xbc7a0017	-0.0152588105
3	0xbd5f8a1e	-0.05457508
4	0xbd8175e9	-0.06321318
5	0xbbb7f2bb	-0.0056136525
6	0xbd307d72	-0.043088384
7	0xbc639586	-0.01389063
8	0xbceaa0db	-0.028641155
9	0xbc3aabb2	-0.011393474
10	0xbca75414	-0.020425834
11	0xbc758aaf	-0.014986678
12	0xbccce135	-0.02500973
13	0xbd0faa7e	-0.035074703
14	0xbc932f4d	-0.01796689
15	0x3a187095	0.0005815116
16	0x3c91822a	0.017762262
17	0x3a80bfff	0.0009822844
18	0xbd2faaef	-0.042887624
19	0xbd036a6a	-0.032083906
20	0xbd60be00	-0.054868698
21	0xbcde6536	-0.02714787
22	0xbd345e55	-0.044035275
23	0xbd38f14a	-0.045151986
24	0xbd68ca22	-0.056833394
25	0xbcf7078b	-0.030154964
26	0xbc835269	-0.016030507
27	0xbce83263	-0.028344339
28	0xbd2b4ff4	-0.041824296
29	0xbc2e07c1	-0.010621966
30	0xbcf26f3b	-0.029594054
31	0xbd4adeb4	-0.049528793
32	0xbcf15425	-0.029459069
33	0xbd070a9a	-0.032969095
34	0xbb128215	-0.0022355367
35	0xbcb82f9a	-0.022483636
36	0xbbd31c46	-0.0064425794
37	0xbc97d5d4	-0.018534578
38	0xbcbb0014	-0.022827186
39	0xbc992472	-0.018694136
40	0xbba46dcb	-0.005017971
41	0xbc3222b8	-0.010872535
42	0xbc8ef71c	-0.017451815
43	0xbc9ca242	-0.01912034
44	0xbce0da6c	-0.027447902
45	0xbba0c914	-0.004906783
46	0xba75b2b4	-0.0009372637
47	0xbb63d2df	-0.003476314
48	0x3c4462cd	0.011986447
49	0xbcf9d82e	-0.03049859
50	0xbc54516b	-0.012958865
51	0xbc23fedf	-0.0100094965
52	0xbb40bd4f	-0.0029409712
53	0xbc92a50e	-0.01790097
54	0x3c1ac2ef	0.00944589
55	0x3b3b3c10	0.0028569736
56	0xbc8535cb	-0.016261002
57	0xbbe57f47	-0.007003698
58	0xbb87e8fe	-0.004147648
59	0x3c9b249f	0.01893836
60	0x3c59da96	0.013296744
61	0x3be62111	0.007022985
62	0xbcb61de5	-0.022231052
63	0xbceb4582	-0.028719667
64	0xbaeca95b	-0.0018055843
65	0xbc9577da	-0.018245626
66	0xbc557da9	-0.013030448
67	0x3bc4257f	0.005985915
68	0x3acf7035	0.0015826287
69	0x3cd15aab	0.02555593
70	0xbcaf5e2f	-0.021407215
71	0xbd173b86	-0.036922
72	0xbbf54395	-0.007484863
73	0xbac7706f	-0.0015216003
74	0xbc62d01d	-0.013843563
75	0xbc00527a	-0.007832164
76	0xbcbd12ae	-0.023080196
77	0xbc809450	-0.01569572
78	0xbc3258ba	-0.010885412
79	0xbc409138	-0.011753373
80	0x3c1115ca	0.008855293
81	0xbcb58331	-0.022157283
82	0xbc7d1f24	-0.015449319
83	0xbca8c0d3	-0.020599758
84	0xbc429222	-0.011875661
85	0x3b598c2b	0.003319512
86	0xbb957e4f	-0.0045621763
87	0x3c13ade3	0.009013626
88	0x3c49ab8e	0.012308968
89	0x3c21bc6d	0.009871584
90	0x3b3b4239	0.0028573407
91	0x3ce4a027	0.027908398
92	0xbc95d6e4	-0.018290944
93	0xbcbac913	-0.022800958
94	0xbc3a5206	-0.011372095
95	0xbc90fe93	-0.017699515
96	0xbcae241a	-0.021257449
97	0xbc86570a	-0.016398925
98	0x3b41dcda	0.00295811
99	0x3bf6e9ae	0.007535181
100	0x3c78b104	0.015178923
101	0x3c2cbd5d	0.010543195
102	0xbc778855	-0.015108188
103	0xbc17ce85	-0.009265547
104	0x3c051150	0.008121803
105	0x3a2d45c5	0.0006609823
106	0x3cf30249	0.029664176
107	0xbc2dc70b	-0.010606538
108	0xbd257243	-0.04039217
109	0xbbd33584	-0.0064455885
110	0xbaa16b2f	-0.0012315268
111	0xbb180606	-0.002319695
112	0xbccdb23a	-0.0251094
113	0xbc9a8c44	-0.018865712
114	0xbd124329	-0.03570858
115	0x3c83c543	0.016085273
116	0xbc52bb54	-0.012862045
117	0xbc64df6f	-0.013969286
118	0xbc1f8e45	-0.00973851
119	0xbc3c27e9	-0.011484125
120	0xbc3aee9d	-0.011409429
121	0xbc701ee5	-0.014655803
122	0x3c4416b1	0.011968301
123	0x3d0272bb	0.031847697
124	0xbc957238	-0.01824294
125	0xbcec05eb	-0.028811416
126	0xbc254f55	-0.010089715
127	0xbcf5113c	-0.029915445
128	0xbd2316bc	-0.039816603
129	0xbc9650f6	-0.018349152
130	0xbcd8f7e2	-0.026485387
131	0x3b557b7a	0.0032574818
132	0x3d466dd5	0.048444588
133	0x39941c8e	0.00028250035
134	0xbc5b824c	-0.013397764
135	0xbc866b6b	-0.016408643
136	0x3bec23c1	0.0072064106
137	0xbcbeab63	-0.023275083
138	0xbd00fd8f	-0.031491812
139	0xbc0b803d	-0.008514461
140	0xbd3171cb	-0.043321412
141	0xbbfabcd6	-0.0076519055
142	0xbd16964f	-0.03676444
143	0xbd0973d1	-0.033557717
144	0xbc4cc8ce	-0.012499047
145	0xbd5c1a4d	-0.05373602
146	0xbd7cd931	-0.061730567
147	0xbd02928d	-0.031878043
148	0xbcbbda8e	-0.022931363
149	0xbc914429	-0.017732697
150	0xbcc9ea6b	-0.024647912
151	0xbc5da86d	-0.013528925
152	0x3c25bc26	0.010115659
153	0xbcabb53a	-0.020960439
154	0xbb3be670	-0.0028671287
155	0xbc552ad8	-0.013010703
156	0xbd4d19d0	-0.050073445
157	0xbc4118e4	-0.01178572
158	0xbcd21db4	-0.02564893
159	0xbcb65e9a	-0.022261906
160	0xbc432caa	-0.011912504
161	0xbc499907	-0.012304551
162	0x3c2a1d17	0.010382912
163	0xbcbc695d	-0.02299946
164	0x3bfe45fb	0.007759807
165	0xbccb7576	-0.024836283
166	0xbbc5ee07	-0.006040338
167	0xbc936639	-0.01799308
168	0xbd5087f6	-0.050910912
169	0xbd489054	-0.048965767
170	0xbb21270a	-0.002458992
171	0xbc291be3	-0.01032159
172	0xbc73ca90	-0.014879838
173	0x3bf7012a	0.0075379806
174	0xbcfbfe90	-0.030761033
175	0xbd023b13	-0.03179462
176	0xbc679d71	-0.014136658
177	0xbcad5552	-0.021158848
178	0xbc708d33	-0.014682102
179	0x3bfb311d	0.007665767
180	0xbc43b5b3	-0.011945176
181	0xbc82bf93	-0.01596049
182	0xbd32c957	-0.043649044
183	0xbca013c1	-0.01954067
184	0x3cebabd2	0.028768454
185	0xbccc2018	-0.024917647
186	0xbc56378f	-0.01307477
187	0xbcd06743	-0.025439864
188	0xbd1c40f4	-0.03814788
189	0xbcdf6bde	-0.027273115
190	0xbccf0298	-0.025269791
191	0xbd14cf10	-0.036330283
192	0xbc77b449	-0.015118667
193	0xbcf9687c	-0.03044533
194	0xbc9c71aa	-0.019097168
195	0xbd61366c	-0.05498354
196	0xbc42b2b3	-0.0118834255
197	0xbccb4f40	-0.024818063
198	0xb9773ec8	-0.00023579143
199	0x3c29f2d1	0.010372833
200	0x3b0809cd	0.0020757795
201	0xbbad9f99	-0.0052985665
202	0xbc38f9eb	-0.011290054
203	0xbc895478	-0.01676391
204	0xbcbd9985	-0.023144493
205	0x3b7ba45a	0.0038397522
206	0xbbee4a9e	-0.0072720787
207	0xbc5ea8f1	-0.013590083
208	0x3ba9eaef	0.005185477
209	0xbbac82ae	-0.0052646017
210	0xbcb02afc	-0.021504872
211	0xbce0a84d	-0.027424002
212	0x3c1fbaf7	0.009749166
213	0xbc43548b	-0.011922012
214	0xbc1ccd13	-0.009570378
215	0xbba2a5e4	-0.0049636234
216	0xbd0a07d2	-0.033698864
217	0xbccd596f	-0.02506706
218	0x3b522776	0.0032066978
219	0xbbdd2e69	-0.0067499173
220	0x3ba0a1ce	0.004902101
221	0x3a97d403	0.001158357
222	0xbcb54e81	-0.02213216
223	0xbc0a3697	-0.008435867
224	0xbcf8851a	-0.030336905
225	0xbd0c626a	-0.034273542
226	0xbcdd9448	-0.027048245
227	0x3b4b0067	0.0030975582
228	0x3d06226a	0.032747664
229	0x3c935e4d	0.017989302
230	0xbb6ab509	-0.0035813472
231	0xbc9932a9	-0.018700914
232	0x3b9fcafa	0.0048764916
233	0xbd111ec8	-0.035429746
234	0x3c3a5b1d	0.011374262
235	0xbbe4694b	-0.0069705597
236	0xbc1f1162	-0.009708734
237	0x3a6acef3	0.00089572294
238	0xbd17d3a0	-0.037067056
239	0x3c24a0f5	0.010048141
240	0xbc6cf8cc	-0.014463615
241	0xbc8df0f3	-0.017326808
242	0xbc602a66	-0.013681984
243	0xbced0e90	-0.028937608
244	0xbc1b9fa6	-0.009498512
245	0xbceb3712	-0.028712783
246	0x39f4029e	0.00046541257
247	0x3bd6a171	0.006550007
248	0x3c35e7dc	0.011102643
249	0x3bc499da	0.005999786
250	0xbc7f3787	-0.015577204
251	0x3bb7ebfa	0.0056128474
252	0xbb6eeca2	-0.0036456962
253	0x3b0d0286	0.0021516397
254	0xbcc23e87	-0.023711456
255	0xbc1e7bfe	-0.009673117

linear.bias f4 [10]
0	0x3efd22d0	0.49440622
1	0x3ee77842	0.45208937
2	0x3dddb217	0.108249836
3	0x3e5858b7	0.21127592
4	0xbec80c04	-0.39071667
5	0xbe10cc4d	-0.14140435
6	0xbee890b3	-0.45422897
7	0xbda63ec6	-0.08117442
8	0xbe763efc	-0.24047464
9	0x3e51358f	0.20430587

exp_avg f4 [10, 3072]
0	0x3b359d56	0.0027712188
1	0x3afce691	0.0019294788
2	0x3b435947	0.0029807852
3	0x3b2c1170	0.002625551
4	0x3b42cb5a	0.0029723258
5	0x3b01f866	0.0019831895
6	0x3a659271	0.0008757478
7	0x3ac763fa	0.001521229
8	0x3b41c30a	0.0029565715
9	0x3b54d597	0.0032475942
10	0x3b2551c3	0.0025225736
11	0x3b309acb	0.0026947733
12	0x3b4197e1	0.002953999
13	0x3b324457	0.0027201378
14	0x3b69799a	0.0035625459
15	0x3b945a69	0.0045273793
16	0x3b86c971	0.004113369
17	0x3b4d126b	0.0031291496
18	0x3b14c19f	0.0022698415
19	0x3b22b6eb	0.0024828266
20	0x3b2048ed	0.002445753
21	0x3b2063c5	0.002447353
22	0x3b227e1b	0.0024794403
23	0x3b192f57	0.0023374164
24	0x3a465e48	0.00075671496
25	0x3ae0441b	0.0017110141
26	0x3ac831fb	0.0015273684
27	0x3b06e153	0.002058108
28	0x3b97224b	0.0046122423
29	0x3b6cc170	0.003612604
30	0x3b08c26d	0.002086784
31	0x3b7f94c1	0.0038998576
32	0x3b26a88b	0.002543005
33	0x3a8a1620	0.0010535158
34	0x3a9e0aa4	0.0012057615
35	0x3b038d35	0.002007318
36	0x3afa2a9a	0.0019086183
37	0x3a8c4da3	0.001070429
38	0x39e01762	0.0004274203
39	0x3b0511e9	0.0020304865
40	0x3ba6492e	0.0050746417
41	0x3bc0b832	0.005881333
42	0x3ba0bf28	0.0049056
43	0x3b97875d	0.004624291
44	0x3b93f55d	0.0045153336
45	0x3b819f2b	0.003955742
46	0x3b404644	0.0029338757
47	0x3b6a7415	0.0035774757
48	0x3b60ca5e	0.0034300308
49	0x3b1c9ac6	0.0023895963
50	0x3b69a684	0.003565223
51	0x3b5e3572	0.0033906368
52	0x3b3f6935	0.0029206995
53	0x3aec518b	0.0018029673
54	0x3ae333fd	0.0017334219
55	0x3ac2975d	0.0014846135
56	0x3ad761ab	0.0016432306
57	0x3b01b059	0.001978895
58	0x39e50dab	0.00043688467
59	0x3afbd26e	0.0019212493
60	0x3b949eca	0.0045355307
61	0x3b520323	0.0032045327
62	0x3af4b272	0.0018668904
63	0x3b03788e	0.002006087
64	0x3bc390b9	0.00596818
65	0x3b86e9e0	0.0041172355
66	0x3bb3fdef	0.0054929177
67	0x3bdb3a3d	0.006690292
68	0x3be7f43f	0.007078677
69	0x3b8c46ee	0.0042809164
70	0x3b9138ae	0.0044318056
71	0x3bb3b896	0.005484651
72	0x3b90a076	0.0044136597
73	0x3b3f409b	0.0029182795
74	0x3b06604e	0.002050418
75	0x39af30b2	0.00033414882
76	0xb86ece13	-5.6935543e-05
77	0xba8b1ae6	-0.0010612875
78	0xba79bde6	-0.0009526893
79	0x39a7d6bd	0.00032012715
80	0x3a8cb074	0.001073374
81	0x398bee81	0.00026689845
82	0xb8733a32	-5.7989913e-05
83	0x39be5a6f	0.00036307002
84	0xb9143cc8	-0.00014137023
85	0x3a153262	0.00056914065
86	0x3a02090c	0.00049604545
87	0x3ac0a86f	0.0014698635
88	0x3ae1f369	0.001723868
89	0xb911bf8b	-0.00013899633
90	0xb94b1c82	-0.00019370209
91	0x3b2aa457	0.0026037896
92	0x3b46b4d4	0.0030320184
93	0x3b5081d8	0.0031815674
94	0x3b1d89d2	0.0024038446
95	0x3b4c2d55	0.003115495
96	0x3bb2eeba	0.0054605873
97	0x3b3e2cb3	0.0029018342
98	0x3ba14262	0.0049212435
99	0x3bd9dcd6	0.00664864
100	0x3badd31c	0.005304707
101	0x3a415cd3	0.00073761976
102	0xbaa9f4ca	-0.001296663
103	0x3a49b2a4	0.0007694161
104	0x398b6e8b	0.00026594507
105	0x3aaf6e9c	0.0013384405
106	0x3b179179	0.002312748
107	0x3a3df42a	0.0007246161
108	0xb6604101	-3.3416438e-06
109	0x38921173	6.965073e-05
110	0x39888b7f	0.00026043874
111	0x39f32169	0.00046373464
112	0x3a973eb2	0.001153907
113	0x3a0c3214	0.00053480384
114	0x3aa19634	0.0012328089
115	0x3a4c614a	0.00077964796
116	0x397558d1	0.00023398107
117	0x399cb875	0.0002989207
118	0xba77b7b0	-0.0009449674
119	0xb9f42ab5	-0.00046571126
120	0x3a29290c	0.0006452955
121	0xbaa06fcc	-0.0012240349
122	0xb9a518dd	-0.00031489777
123	0x3b25f2a0	0.0025321618
124	0x3bd2223c	0.0064127725
125	0x3bd7cb3d	0.006585507
126	0x3b7ebfc4	0.0038871625
127	0x3b98ccb0	0.0046630725
128	0x3b1f2af4	0.0024287077
129	0xbb0a366f	-0.0021089574
130	0xbb081d6a	-0.0020769485
131	0x3a7e9e29	0.0009712899
132	0x3b50da67	0.003186846
133	0xb8c0c2be	-9.191547e-05
134	0xbacb1ad8	-0.0015495671
135	0xba802542	-0.0009776729
136	0xba502d3d	-0.00079413113
137	0xba98abcf	-0.0011647883
138	0xba9ae0fb	-0.0011816317
139	0xbae2eb4d	-0.0017312557
140	0xbadef4e4	-0.0017010239
141	0xbb204c5b	-0.0024459574
142	0xbb00061b	-0.001953489
143	0xba25d147	-0.0006325435
144	0x39e807fe	0.00044256443
145	0xba6d1bc8	-0.0009044972
146	0xbaa197a5	-0.0012328519
147	0xba4b7c3e	-0.0007762349
148	0xba8db95e	-0.001081269
149	0xbaa593ad	-0.0012632512
150	0xbac5a28b	-0.0015078349
151	0xbada31f5	-0.0016646968
152	0xbab9c3cb	-0.0014172731
153	0xbae190dd	-0.001720931
154	0xba336327	-0.0006843083
155	0x3b399268	0.0028316025
156	0x3b972a06	0.004613164
157	0x3bc9636d	0.0061458857
158	0x3bb299de	0.0054504713
159	0x3b9115a4	0.0044276286
160	0xb947f7b3	-0.00019070394
161	0xbb3beea1	-0.002867617
162	0xbb2d5b24	-0.002645203
163	0xbaa5a11c	-0.0012636515
164	0x3b75e561	0.0037520754
165	0xb9bbed71	-0.00035844327
166	0xbabed405	-0.0014559036
167	0xbaeec3a6	-0.0018216267
168	0xba78661d	-0.0009475665
169	0xbb067dff	-0.0020521877
170	0xbb638f77	-0.0034722963
171	0xbb4e9fd2	-0.0031528366
172	0xbb503178	-0.0031767767
173	0xbb222489	-0.0024741015
174	0xbac8cd32	-0.0015319942
175	0xb92b862f	-0.00016357818
176	0x3a0f312f	0.0005462346
177	0xba571240	-0.00082043186
178	0x397380e3	0.000232223
179	0x3ae233e5	0.0017257897
180	0x392a28d9	0.0001622768
181	0xb96812d4	-0.00022132258
182	0xba960c9d	-0.0011447851
183	0xbb3d4c30	-0.0028884523
184	0xbb6d86f1	-0.0036243761
185	0xbb3af9ef	-0.002853032
186	0xba158a61	-0.0005704519
187	0x39aa95bc	0.00032536488
188	0x3b23387e	0.0024905498
189	0x3b895c9a	0.004191947
190	0x3b5ca38a	0.0033666813
191	0x3b6b6363	0.0035917393
192	0xbac5b191	-0.0015082826
193	0xbb5b5d5f	-0.0033472402
194	0xbb1a6290	-0.0023557283
195	0xbaa1fd13	-0.0012358747
196	0x3b57af6f	0.0032910963
197	0x3a3e20f8	0.00072528375
198	0x382249c2	3.8692502e-05
199	0xbaa06b1b	-0.0012238951
200	0xbb29038f	-0.0025789475
201	0xbb49abd7	-0.003077259
202	0xbb6948a3	-0.0035596273
203	0xbb98471b	-0.0046471483
204	0xbb9d08f4	-0.004792327
205	0xbb8fe1b5	-0.00439092
206	0xbb18274d	-0.0023216784
207	0xbab278fb	-0.0013616377
208	0xba88d48f	-0.0010439324
209	0xbaa54c97	-0.0012611327
210	0x38036534	3.1327087e-05
211	0xb84e355d	-4.9163926e-05
212	0xba993133	-0.0011687636
213	0xbb001366	-0.0019542812
214	0xbb0400ba	-0.0020142035
215	0xbb47481f	-0.0030407978
216	0xbb2670eb	-0.0025396894
217	0xbb4faf04	-0.003169001
218	0xbaaa2959	-0.0012982293
219	0xba383e9f	-0.0007028374
220	0x3a745367	0.0009320289
221	0x3b5b1547	0.003342943
222	0x3b76fb1e	0.0037686299
223	0x3b1b4205	0.0023690474
224	0xbaab41f4	-0.001306592
225	0xbb19a597	-0.0023444647
226	0xbb0f6fa9	-0.0021886623
227	0xba10bbfb	-0.00055211753
228	0x3b2e931b	0.0026637975
229	0x3a05f702	0.00051103544
230	0xba1054a0	-0.0005505774
231	0xba570241	-0.0008201935
232	0xba0f8c76	-0.00054759474
233	0xbb06923b	-0.0020533937
234	0xbb78adff	-0.0037945507
235	0xbb8e32e4	-0.0043395627
236	0xbbd912e6	-0.0066245673
237	0xbba16df5	-0.004926438
238	0xbb3eef83	-0.002913446
239	0xbb40675e	-0.0029358487
240	0xbb4b5617	-0.0031026655
241	0xbae7a802	-0.0017673972
242	0xbad2b34e	-0.0016075165
243	0xbb11bf43	-0.0022239245
244	0xbb5c0baf	-0.00335763
245	0xbb463127	-0.00302417
246	0xbaeb5310	-0.0017953832
247	0xba793f31	-0.00095080124
248	0xbad8d148	-0.0016541863
249	0xbb225ccc	-0.002477455
250	0xbacbf288	-0.0015559951
251	0xbacc633f	-0.0015593542
252	0xba0d61a3	-0.0005393272
253	0x3b4cfceb	0.003127868
254	0x3b800bce	0.003907657
255	0x3b374f70	0.0027970932

exp_avg_sq f4 [10, 3072]
0	0x3a0c3e2c	0.00053498405
1	0x3a050854	0.00050747884
2	0x39f6d91c	0.00047082535
3	0x39e554b6	0.00043741398
4	0x39d9d39c	0.00041547127
5	0x39d4d048	0.00040590973
6	0x39cfb103	0.00039614
7	0x39cc4701	0.00038962814
8	0x39c97ef0	0.00038432283
9	0x39c75337	0.00038018238
10	0x39c24ca2	0.0003705966
11	0x39c0a07a	0.00036740658
12	0x39c2610a	0.00037074863
13	0x39c32ed3	0.00037228185
14	0x39c38938	0.00037295534
15	0x39c3b15d	0.00037325444
16	0x39c216f5	0.00037019668
17	0x39c0242e	0.0003664805
18	0x39c02708	0.00036650174
19	0x39c191b1	0.00036920377
20	0x39c53f83	0.00037622088
21	0x39cb2342	0.00038745446
22	0x39cacb07	0.0003867971
23	0x39ca780e	0.0003861789
24	0x39cd1324	0.00039114908
25	0x39cfbab7	0.0003962123
26	0x39d07b79	0.00039764846
27	0x39d7e574	0.00041178952
28	0x39e45a12	0.00043554656
29	0x39ece9e0	0.00045187678
30	0x3a0333f6	0.0005004996
31	0x3a0bf8ce	0.0005339504
32	0x3a036a25	0.000501307
33	0x39f04aed	0.0004583219
34	0x39dbd2eb	0.0004192808
35	0x39c65e81	0.00037835914
36	0x39bbd38a	0.00035825028
37	0x39b64a66	0.00034769176
38	0x39b2342e	0.00033989683
39	0x39b29e5b	0.0003406879
40	0x39b1bc5b	0.00033900407
41	0x39ae752d	0.0003327517
42	0x39a91fce	0.00032257888
43	0x39a77c0e	0.0003194515
44	0x39a72016	0.00031876628
45	0x39a4bf0f	0.00031422867
46	0x39a34f01	0.00031148645
47	0x39a2c40b	0.0003104511
48	0x39a1927b	0.0003081745
49	0x39a1fc76	0.0003089641
50	0x39a2b526	0.00031034014
51	0x39a519a5	0.0003149036
52	0x39a66f1f	0.0003174478
53	0x39a80e9a	0.00032054336
54	0x39a8568d	0.00032107942
55	0x39a86a39	0.000321226
56	0x39accbe6	0.00032958313
57	0x39ae504e	0.00033247698
58	0x39b2115e	0.00033963745
59	0x39bdd9f5	0.0003621128
60	0x39c90a7b	0.00038345516
61	0x39d96474	0.0004146431
62	0x39f96c42	0.0004757364
63	0x3a062a32	0.0005117982
64	0x39f58e99	0.00046836285
65	0x39db5fdd	0.0004184236
66	0x39c5bf43	0.0003771727
67	0x39ad39bc	0.00033040147
68	0x39a1f0f3	0.00030887834
69	0x399892a8	0.00029100967
70	0x39950932	0.00028426346
71	0x39937579	0.0002812555
72	0x398efc81	0.0002727248
73	0x398b8d10	0.00026617246
74	0x39871b77	0.0002576967
75	0x3984a842	0.00025302364
76	0x3985024d	0.0002536945
77	0x3982c270	0.000249404
78	0x39829147	0.00024903772
79	0x3981d782	0.00024765363
80	0x39825621	0.00024859703
81	0x39852582	0.00025395682
82	0x3984953b	0.00025288187
83	0x39840be2	0.00025185855
84	0x3984291e	0.00025207637
85	0x398537f7	0.00025409434
86	0x3987c9ce	0.00025899563
87	0x398b734e	0.00026598055
88	0x398e68e4	0.000271625
89	0x3991b113	0.00027788486
90	0x3994bb02	0.0002836809
91	0x399e9c65	0.0003025263
92	0x39ab441d	0.0003266641
93	0x39bd1acd	0.00036068857
94	0x39db9f40	0.00041889586
95	0x39f91371	0.00047507466
96	0x39e934d0	0.00044480572
97	0x39c9c091	0.0003848118
98	0x39b22207	0.00033976158
99	0x3991a758	0.00027781236
100	0x398034ec	0.00024453492
101	0x396e1bbd	0.00022707782
102	0x395ff418	0.00021357869
103	0x39587d0a	0.00020645946
104	0x3958fba2	0.00020693106
105	0x3958cf92	0.00020676691
106	0x395866ca	0.00020637657
107	0x39532637	0.00020136764
108	0x394fcc0d	0.00019817073
109	0x394a1897	0.00019273382
110	0x3948a955	0.00019136567
111	0x3944d933	0.0001877293
112	0x3945c898	0.00018862111
113	0x394afe62	0.00019358986
114	0x394c58ab	0.00019487987
115	0x394fabc2	0.00019805043
116	0x39518d25	0.00019984374
117	0x39520da6	0.00020032245
118	0x3956a8ea	0.00020471556
119	0x395ca71f	0.00021043092
120	0x39609bd6	0.00021420358
121	0x39629ab4	0.00021610671
122	0x396f254a	0.00022806707
123	0x3983b7c2	0.00025123177
124	0x39983719	0.0002903275
125	0x39ae3860	0.0003322987
126	0x39cadfb8	0.00038695126
127	0x39ecdd5c	0.00045178353
128	0x39d9a108	0.00041509443
129	0x39baf2a0	0.00035657454
130	0x399d2e8e	0.0002998006
131	0x397bf058	0.0002402676
132	0x39690bdb	0.00022225028
133	0x39500041	0.0001983652
134	0x39442995	0.00018707507
135	0x393f35e9	0.00018235263
136	0x393c53b7	0.00017960263
137	0x393a3872	0.0001775937
138	0x39357135	0.00017303678
139	0x39310f21	0.00016885671
140	0x3933278c	0.00017085503
141	0x39313f5c	0.00016903639
142	0x392dd9b5	0.00016579668
143	0x392a32ea	0.0001623143
144	0x392b67a4	0.0001634644
145	0x392d9eed	0.0001655777
146	0x39302a26	0.0001680037
147	0x39332e06	0.00017087915
148	0x39307ff8	0.0001683234
149	0x3932a661	0.00017037384
150	0x3937c663	0.00017526145
151	0x393ddfb5	0.00018107782
152	0x393fc4ee	0.00018288541
153	0x393e88c0	0.00018170755
154	0x39458d0f	0.00018839932
155	0x395e20d2	0.00021183796
156	0x397f68a9	0.00024357684
157	0x399a097d	0.00029380238
158	0x39ba82a8	0.0003557403
159	0x39e1b8b1	0.0004305295
160	0x39d323c4	0.00040271704
161	0x39b2d902	0.0003411249
162	0x39964e28	0.0002866846
163	0x396e73d5	0.000227406
164	0x3950d31e	0.00019915073
165	0x39393286	0.00017661796
166	0x3933fbc3	0.00017164559
167	0x392f5704	0.00016721716
168	0x392e2afc	0.00016609946
169	0x392db55b	0.00016566126
170	0x392cdc29	0.00016485214
171	0x392a0fc8	0.00016218342
172	0x392a29db	0.00016228056
173	0x392a697e	0.00016251762
174	0x3928974b	0.0001607809
175	0x3925c683	0.00015809578
176	0x3926f520	0.0001592231
177	0x392929d3	0.00016132677
178	0x392bbe28	0.0001637867
179	0x39303626	0.0001680484
180	0x392bad95	0.00016372495
181	0x3929246e	0.00016130667
182	0x392b4b29	0.0001633583
183	0x3930cbf7	0.00016860651
184	0x39305858	0.00016817579
185	0x3930b687	0.00016852665
186	0x39378914	0.00017503306
187	0x3946d447	0.00018961831
188	0x396bc998	0.00022486446
189	0x398d3c62	0.00026938604
190	0x39af3316	0.00033416663
191	0x39d547b5	0.00040679952
192	0x39ce109f	0.00039303766
193	0x39ab9278	0.0003272479
194	0x398f81da	0.00027371832
195	0x3960c992	0.00021437395
196	0x39431540	0.00018604565
197	0x39317d37	0.00016926682
198	0x392c3e93	0.00016426509
199	0x3928b79c	0.00016090128
200	0x3928b278	0.00016088213
201	0x3928091b	0.0001602512
202	0x392a57e8	0.00016245211
203	0x39294ff0	0.00016146875
204	0x39273500	0.00015946105
205	0x3925f2b8	0.00015826046
206	0x3922999e	0.00015506751
207	0x39238784	0.00015595375
208	0x39242467	0.0001565382
209	0x39265423	0.00015862337
210	0x3929cec9	0.0001619413
211	0x392b0290	0.00016308785
212	0x3927cb93	0.00016002198
213	0x39288ceb	0.00016074225
214	0x392799d6	0.0001598367
215	0x3929d06c	0.00016194739
216	0x392ae5bf	0.0001629805
217	0x392a1f9f	0.00016224243
218	0x392a588e	0.00016245453
219	0x39390222	0.0001764377
220	0x395c3bac	0.00021003064
221	0x39862fff	0.00025594232
222	0x39a84262	0.00032092916
223	0x39ce982c	0.0003940476
224	0x39cb25bd	0.00038747294
225	0x39a98459	0.000323328
226	0x39890bc2	0.00026139437
227	0x395535ae	0.0002033326
228	0x3938440f	0.00017572961
229	0x39278012	0.00015974071
230	0x3924d0e5	0.00015718078
231	0x392395cb	0.00015600694
232	0x3921afbb	0.00015419621
233	0x392460a1	0.00015676256
234	0x3924096e	0.00015643772
235	0x3923db77	0.00015626648
236	0x392204e7	0.0001545135
237	0x391ecd9d	0.00015144651
238	0x391fff0b	0.00015258433
239	0x391fed28	0.00015251769
240	0x39218d41	0.00015406778
241	0x39234647	0.00015571072
242	0x3924d6c1	0.00015720261
243	0x392461e7	0.0001567673
244	0x3922307f	0.0001546759
245	0x3923cfd4	0.00015622313
246	0x39228339	0.00015498408
247	0x39220c61	0.00015454135
248	0x392456ce	0.00015672596
249	0x39239e03	0.00015603755
250	0x3922ab11	0.00015513251
251	0x39301f10	0.0001679624
252	0x3952fe6d	0.00020121942
253	0x39830cac	0.00024995708
254	0x39a6573e	0.00031726988
255	0x39cafa46	0.0003871491

exp_avg f4 [10]
0	0xbbc9148d	-0.006136483
1	0x3b82377f	0.003973901
2	0x3b8506ea	0.004059662
3	0x3b2800c4	0.0025635222
4	0xbbd1689d	-0.0063906447
5	0x3bb5c31a	0.0055469396
6	0xbb306d62	-0.0026920666
7	0x3ad49cc6	0.0016221039
8	0x3c0a832e	0.008454127
9	0xbc343dd2	-0.011001067

exp_avg_sq f4 [10]
0	0x3a26fe81	0.00063703215
1	0x3a27e6e4	0.000640495
2	0x3a38cc2b	0.00070494664
3	0x3a39ec48	0.00070923986
4	0x3a3b7463	0.0007150827
5	0x3a394d0c	0.0007068671
6	0x3a2d8a60	0.0006620046
7	0x3a34be1e	0.0006894785
8	0x3a143db5	0.0005654947
9	0x3a296447	0.0006461781
